Wrapping the env with a `Monitor` wrapper
Wrapping the env in a DummyVecEnv.
Using cuda device
Wrapping the env with a `Monitor` wrapper
Wrapping the env in a DummyVecEnv.
Model Policy = SACPolicy(
  (actor): Actor(
    (features_extractor): FlattenExtractor(
      (flatten): Flatten(start_dim=1, end_dim=-1)
    )
    (latent_pi): Sequential(
      (0): Linear(in_features=8, out_features=400, bias=True)
      (1): ReLU()
      (2): Linear(in_features=400, out_features=300, bias=True)
      (3): ReLU()
    )
    (mu): Linear(in_features=300, out_features=2, bias=True)
    (log_std): Linear(in_features=300, out_features=2, bias=True)
  )
  (critic): ContinuousCritic(
    (features_extractor): FlattenExtractor(
      (flatten): Flatten(start_dim=1, end_dim=-1)
    )
    (qf0): Sequential(
      (0): Linear(in_features=10, out_features=400, bias=True)
      (1): ReLU()
      (2): Linear(in_features=400, out_features=300, bias=True)
      (3): ReLU()
      (4): Linear(in_features=300, out_features=1, bias=True)
    )
    (qf1): Sequential(
      (0): Linear(in_features=10, out_features=400, bias=True)
      (1): ReLU()
      (2): Linear(in_features=400, out_features=300, bias=True)
      (3): ReLU()
      (4): Linear(in_features=300, out_features=1, bias=True)
    )
  )
  (critic_target): ContinuousCritic(
    (features_extractor): FlattenExtractor(
      (flatten): Flatten(start_dim=1, end_dim=-1)
    )
    (qf0): Sequential(
      (0): Linear(in_features=10, out_features=400, bias=True)
      (1): ReLU()
      (2): Linear(in_features=400, out_features=300, bias=True)
      (3): ReLU()
      (4): Linear(in_features=300, out_features=1, bias=True)
    )
    (qf1): Sequential(
      (0): Linear(in_features=10, out_features=400, bias=True)
      (1): ReLU()
      (2): Linear(in_features=400, out_features=300, bias=True)
      (3): ReLU()
      (4): Linear(in_features=300, out_features=1, bias=True)
    )
  )
)
Logging to log_dir/TamerSACOptim_24
---------------------------------
| rollout/           |          |
|    ep_len_mean     | 107      |
|    ep_rew_mean     | -165     |
| time/              |          |
|    episodes        | 4        |
|    fps             | 274      |
|    time_elapsed    | 1        |
|    total_timesteps | 427      |
---------------------------------
…
