…
licy'>}, <class 'stable_baselines3.active_tamer.policies.ActiveSACHPolicy'>: {'ActiveMlpPolicy': <class 'stable_baselines3.active_tamer.policies.ActiveSACHPolicy'>}}
<class 'stable_baselines3.active_tamer.policies.SACHPolicy'>
{'HumanMlpPolicy': <class 'stable_baselines3.active_tamer.policies.SACHPolicy'>}
HumanMlpPolicy
Using cuda device
Wrapping the env with a `Monitor` wrapper
Wrapping the env in a DummyVecEnv.
Model Policy = SACHPolicy(
  (actor): Actor(
    (features_extractor): FlattenExtractor(
      (flatten): Flatten(start_dim=1, end_dim=-1)
    )
    (latent_pi): Sequential(
      (0): Linear(in_features=8, out_features=400, bias=True)
      (1): ReLU()
      (2): Linear(in_features=400, out_features=300, bias=True)
      (3): ReLU()
    )
    (mu): Linear(in_features=300, out_features=2, bias=True)
    (log_std): Linear(in_features=300, out_features=2, bias=True)
  )
  (critic): ContinuousCritic(
    (features_extractor): FlattenExtractor(
      (flatten): Flatten(start_dim=1, end_dim=-1)
    )
    (qf0): Sequential(
      (0): Linear(in_features=10, out_features=400, bias=True)
      (1): ReLU()
      (2): Linear(in_features=400, out_features=300, bias=True)
      (3): ReLU()
      (4): Linear(in_features=300, out_features=1, bias=True)
    )
    (qf1): Sequential(
      (0): Linear(in_features=10, out_features=400, bias=True)
      (1): ReLU()
      (2): Linear(in_features=400, out_features=300, bias=True)
      (3): ReLU()
      (4): Linear(in_features=300, out_features=1, bias=True)
    )
  )
  (human_critic): ContinuousCritic(
    (features_extractor): FlattenExtractor(
      (flatten): Flatten(start_dim=1, end_dim=-1)
    )
    (qf0): Sequential(
      (0): Linear(in_features=10, out_features=400, bias=True)
      (1): ReLU()
      (2): Linear(in_features=400, out_features=300, bias=True)
      (3): ReLU()
      (4): Linear(in_features=300, out_features=1, bias=True)
    )
    (qf1): Sequential(
      (0): Linear(in_features=10, out_features=400, bias=True)
      (1): ReLU()
      (2): Linear(in_features=400, out_features=300, bias=True)
      (3): ReLU()
      (4): Linear(in_features=300, out_features=1, bias=True)
    )
  )
  (critic_target): ContinuousCritic(
    (features_extractor): FlattenExtractor(
      (flatten): Flatten(start_dim=1, end_dim=-1)
    )
    (qf0): Sequential(
      (0): Linear(in_features=10, out_features=400, bias=True)
      (1): ReLU()
      (2): Linear(in_features=400, out_features=300, bias=True)
      (3): ReLU()
      (4): Linear(in_features=300, out_features=1, bias=True)
    )
    (qf1): Sequential(
      (0): Linear(in_features=10, out_features=400, bias=True)
      (1): ReLU()
      (2): Linear(in_features=400, out_features=300, bias=True)
      (3): ReLU()
      (4): Linear(in_features=300, out_features=1, bias=True)
    )
  )
  (human_critic_target): ContinuousCritic(
    (features_extractor): FlattenExtractor(
      (flatten): Flatten(start_dim=1, end_dim=-1)
    )
    (qf0): Sequential(
      (0): Linear(in_features=10, out_features=400, bias=True)
      (1): ReLU()
      (2): Linear(in_features=400, out_features=300, bias=True)
      (3): ReLU()
      (4): Linear(in_features=300, out_features=1, bias=True)
    )
    (qf1): Sequential(
      (0): Linear(in_features=10, out_features=400, bias=True)
      (1): ReLU()
      (2): Linear(in_features=400, out_features=300, bias=True)
      (3): ReLU()
      (4): Linear(in_features=300, out_features=1, bias=True)
    )
  )
)
Logging to log_dir/TamerRLSACOptim_10
--------------------------------------
| rollout/                |          |
|    ep_len_mean          | 104      |
|    ep_rew_mean          | -158     |
| time/                   |          |
|    episodes             | 4        |
|    fps                  | 44       |
|    time_elapsed         | 9        |
…
